scandia_84.pth (torch, 15782 bytes, 5 tensors)

linear1.weight f4 [32, 84]
00000000: c697 f5b8 b69e 813e a320 3b3e 2f4c eb3d
00000010: bc73 a1bd 5894 21bd 955b bd3d 1af9 863d
00000020: 6714 e13d 70d9 8fbd e19c c03d 3876 133e
00000030: 77d2 063e 3242 e73d ceb8 f13c 2787 963d
00000040: 5ef8 053e 5238 b53d 77fd c63d 9184 9cbd
00000050: 2775 013e 557b 693e 5501 433d ba63 fe3d
00000060: 9b8e 3c3d a605 1b3e cf76 eb3d 3fe3 333d
00000070: d8ee c43d 60f4 29bc 91cf 5a3c 82c2 ed3d
00000080: 5adc 1ebd a7e5 f93c 3f43 b73d bebd 043e
00000090: 5e1b dabb 9b48 ed3d f075 693d d39e 003e
000000a0: e1d3 173e 9783 223e 019d 4c3c 7dc8 0ebc
000000b0: ce80 353e 70c0 1b3e 53e6 1e3d 8791 4f3b
000000c0: cce3 a23d 75e5 103e 84f1 b03d 2c7b 313e
000000d0: 21c7 443c 73e5 993d 707f 813d 3302 f23d
000000e0: bc12 d3bc 04c3 79bd c1c0 013e d6de 8e3d
000000f0: 3fad ba3c 9b91 f83c 791c 59bc b2ef 54bd
00000100: b17a 263c cefb 7f3d 871c 163d aa60 cd3c
00000110: 956f 2d3d 241f 903d ffd7 19bd a6ec 66bc
00000120: 9b46 1b3e 414f 053d c152 d93d 294d 1a3d
00000130: b22b 61bc 0a98 383d e601 c43d 4c2f 953d
00000140: 19a9 f23c 17f6 81bb 8304 e33c 081d 923d
00000150: b625 963c 92d2 dcbd 6e97 d7bb 460e 88bd
00000160: ae33 913d 48a9 c03d ba7b d33c 0f69 2abc
00000170: 8012 c13b 2ee3 2ebd 46ff 5e3c 8398 35bd
00000180: 1aee d0bd 896c 173d 68ec df3d 8fa0 7d3c
00000190: 1dc3 e0bd 224c 41be 456e 63be afc5 17bd
000001a0: 44f5 f1bd e793 dabd d028 1ebe 81d3 c0bc
000001b0: a598 2cbe a257 c53d d21f bd3d d252 10bd
000001c0: f1a4 553d d200 493d 1d08 0a3c 1bf0 d23d
000001d0: ffe9 efbc ec15 5dbd cafb ba3b f512 333d
000001e0: 4d0f 07be 2a09 a4bd 9cad 9e3d d1c6 bcbd
000001f0: 1712 4a3d 1c6e 233b 4cb7 783d 445e dcbd
00000200: e52a a1bd 2cb6 a73d 6b9c 103d 61d7 9abc
00000210: b6c1 093d af12 b83c 6ea1 c7bd fe37 05bd
00000220: f0f4 e2bd dce7 05bc ae3e 533c 3290 5fbe
00000230: 4c12 05be f91d 823c 4b24 8bbd 9b58 42bd
00000240: f0c7 2cbd b177 c2bc e0a8 9bbd 9068 e33d
00000250: 2a00 9e3d 5b48 ed3c b968 c3bc 282e 8fbd
00000260: b0e4 a13d e110 acbd 6741 103e 998e 02be
00000270: cb83 0abd 60c3 9dbc 13e3 61bc bcd9 0a3e
00000280: 3eea f13d f0c1 75bd be30 253e e2ae d33d
00000290: b04f 1d3d 4e59 983d 1938 fabb 61b2 9b3d
000002a0: 37e8 d83d 8a55 783e 1c01 3e3e d8fb bd3d
000002b0: a3b5 f33c 11f3 b13d 8a43 0abc 6d62 273e
000002c0: 6372 f63d 8dc2 d83d ad9f 543d df8a b7bc
000002d0: 6c7b f03d 4468 6b3d 7a58 ef3d 9e3c 293d
000002e0: 0c0a 473e 6318 bc3d dffd e83d 7231 c2bc
000002f0: a69b 0abc 83e8 9c3d e739 523b 879b 293a
00000300: d9c1 383e bca6 fb3c c9bc 5bbc 4cc9 603d
00000310: ed1d 013e 9b54 f13d dd2d ea3d 6ce7 8e3d
00000320: e3b7 333d cb68 0a3e 592f 773d e5d7 003e
00000330: 34f7 72bc 0595 a93d 6641 a53c 2a44 8b3d
00000340: 908d 96bd b253 f13d e8bf e33c 6406 a43c
00000350: 5631 213e 25cc f13c adc0 60bd f3bf a53d
00000360: fe16 29bc ea72 863d d086 bd3d 7e78 973d
00000370: f929 313d 4156 34bc 8249 b5bc f64b fd3d
00000380: 08ca b43d ade3 21bd ca5b 103e 4d6a 85bd
00000390: 0282 fb3d cdd2 643d fb2e c03d a983 da3d
000003a0: fab4 273d 58a4 e1bc 2e04 0fbd c860 363e
000003b0: 3446 9a3b 3f91 e53c 759b 893d dfb9 9b3d
000003c0: 11cf 173e 94c2 81bd 76c8 533c 8cd5 0abd
000003d0: 80e4 94bb e175 46bd 37bf 0d3d bcff b63c
000003e0: 522e a5bd 1083 2bbd aa43 823d 74c8 b03d
000003f0: 2683 2d3e 7548 853d 2193 35bc 3e12 25bd
-0.000117107804 0.253164 0.18274169 0.1148914 -0.07883403 -0.039448112 0.092459835 0.06590481
0.109902196 -0.07023895 0.09404922 0.14400566 0.13166223 0.11291923 0.029507067 0.07349997
0.13083026 0.08848633 0.09716313 -0.076424725 0.12642346 0.22800954 0.047608692 0.12421365
0.046034437 0.15138873 0.1149727 0.04391789 0.09615868 -0.010373205 0.013355152 0.11609365
-0.038784362 0.030505015 0.08948373 0.12963006 -0.0066560945 0.11586114 0.05699724 0.12560587
0.14826919 0.1587051 0.0124886045 -0.008714792 0.17724916 0.15210128 0.038793873 0.0031672434
0.07953605 0.14150031 0.086398154 0.17332143 0.012010367 0.07514467 0.06323135 0.11816826
-0.02576577 -0.060976997 0.12671186 0.06976096 0.022787688 0.030342868 -0.013251417 -0.051986404
0.010161088 0.062496 0.0366483 0.025070507 0.04234274 0.070371896 -0.037559506 -0.014094507
0.15163653 0.032546286 0.10611487 0.037671242 -0.013743328 0.04506687 0.095706746 0.07284412
0.029621648 -0.003966104 0.027712112 0.071344435 0.018328529 -0.107823506 -0.006579331 -0.066433474
0.07089935 0.09407288 0.025815833 -0.0104010245 0.005892098 -0.042697124 0.013610667 -0.0443349
-0.10201664 0.03696874 0.10933763 0.015480175 -0.10974715 -0.18876699 -0.22210033 -0.03705376
-0.11814359 -0.106727414 -0.15445256 -0.023538353 -0.16855104 0.09635855 0.09234585 -0.035235234
0.052159254 0.049073048 0.008424786 0.10299703 -0.029286383 -0.053975984 0.005706285 0.04371925
-0.1318943 -0.080095604 0.07747957 -0.09217609 0.049333658 0.0024937456 0.06072168 -0.10760167
-0.078695096 0.081890434 0.03530542 -0.018901529 0.033632003 0.022469847 -0.09747587 -0.0325241
-0.11081874 -0.008172955 0.012893362 -0.2183235 -0.12995261 0.015883433 -0.06794032 -0.047447782
-0.042182863 -0.023738714 -0.0760057 0.11103928 0.07714875 0.028965166 -0.023853647 -0.069912255
0.07904947 -0.08401657 0.14087449 -0.12749709 -0.033817094 -0.019258201 -0.013787049 0.13559622
0.11812256 -0.059999406 0.16131875 0.103360906 0.038406074 0.074389085 -0.007636082 0.076023825
0.105911665 0.2425138 0.1855511 0.09276551 0.029749697 0.08688939 -0.008438954 0.1634614
0.12033536 0.105839826 0.05191009 -0.022405086 0.11742291 0.057472482 0.116867974 0.041317575
0.19437426 0.09184339 0.11376547 -0.023705218 -0.008459961 0.076615356 0.003207797 0.0006470014
0.18042697 0.030719154 -0.013411709 0.05487947 0.12609072 0.11783715 0.11434529 0.06977734
0.04387654 0.13516538 0.06034789 0.12582357 -0.014829446 0.08280376 0.020172786 0.06800111
-0.0735122 0.11783542 0.027801469 0.020022579 0.15741476 0.029516289 -0.05487125 0.08093252
-0.010320423 0.06564887 0.09254229 0.07396029 0.04325292 -0.011006893 -0.022129778 0.12368004
0.08827597 -0.03952377 0.14097515 -0.06514416 0.122806564 0.055865098 0.09383961 0.106696434
0.040944077 -0.027544186 -0.034916095 0.17810357 0.004708076 0.02802336 0.06719104 0.076038115
0.14825083 -0.06335941 0.012926212 -0.03389506 -0.004543841 -0.04845226 0.034606185 0.02233874
-0.080654755 -0.041873038 0.06360562 0.086319834 0.1694456 0.06507961 -0.011082442 -0.0403006

linear1.bias f4 [32]
00000000: 0267 23be 57ac a23e d06a 61be ae07 4bbe
00000010: 5180 3fbe ef13 663e 8e3f 99bc 9bc7 8d3e
00000020: 5a1c a33e 6194 ccbd aed5 ac3e f6be 6a3e
00000030: b142 8dbe 6f7f 24be fbb7 6dbe 2a10 843e
00000040: 775c 513e 8642 d9bd 133a 993e 9a08 993e
00000050: 9eb1 1239 c1bd b03e 8431 58be 9333 503e
00000060: f193 a9bd 077a 963e 06e5 973e d1cf 56be
00000070: b50f 633e deee 743e 7acb 8f3e 8cc0 5abe
-0.15957263 0.3177211 -0.22013402 -0.19827148 -0.18701293 0.22468542 -0.018707063 0.2769135
0.31857568 -0.099892385 0.33756775 0.22924408 -0.27589944 -0.16064237 -0.23214714 0.25793582
0.20445429 -0.106083915 0.2992712 0.29889375 0.00013989813 0.3451977 -0.21112639 0.20332174
-0.08280171 0.29389974 0.2966692 -0.20977713 0.2217396 0.23919246 0.28084928 -0.21362513

linear2.weight f4 [16, 32]
00000000: c4fd 413c f41b 2fbe c49e 2fbd 25c8 c13d
00000010: d06a e03a 29f1 02bc 2091 9cbd bcd8 2fbd
00000020: b6e3 bb3d cb95 d23c 7f36 06be 27dd 06bd
00000030: 5388 71bb 2a67 183e 2d53 6e3d 4400 30be
00000040: 1615 13be 4bca ba3d e720 06be ef5c 003e
00000050: 3363 51bc 294a abbd 7ea2 24be dfb8 72bc
00000060: ca6c 92bc bc40 bcbd 7cbb cf3c fcc1 fbbd
00000070: 474d 1e3e 9b7e 0bbe dcd1 a23c 7cbe 24be
00000080: da01 d33d 5728 943a 28a9 113e 00af 883d
00000090: 09e8 87bc b863 c93d 91a0 343e b4ea d73c
000000a0: 098f 443c 65f8 1bbe 5a1a c83d 5ec0 7abd
000000b0: b38f 87bd 7b84 233c 5f63 89bd 75e4 a9bc
000000c0: 0341 153e dccc cf3d 8eed 2bbe 0236 70bd
000000d0: 0043 2a3e 6f67 1abd 5c86 223d bdfc 05be
000000e0: 5214 e1bd c1ef fcbd ab7a e8bd 4d30 32be
000000f0: 147a 003d 0fc9 46bd 2c1b 12be 6827 283e
00000100: 439e 463d e89d 873e 0e94 7bbd f431 d6bd
00000110: b5b2 0fbe 16a2 4f3e 24f4 533e d093 a43e
00000120: 4f6a 813e 9f7a 26be 69ad 843e 804b ae3e
00000130: 048a 05be 59c7 6cbe ae44 333d 51bc 213d
00000140: 4c24 b63e 1afd 3cbe 51b9 903e 18bf 913e
00000150: 2c0f 473d d387 613e 92e4 493c 86ee a13e
00000160: 8cae 5fbe 4c16 8a3e c61c 663e 988f 7abe
00000170: 0346 b53e e24d a93e 62a5 8b3e 32bb 3cbe
00000180: ae84 493e b145 d4bd 64fc 613e f2d2 913d
00000190: 3099 3cbd b8b4 b63d 3764 1bbd 2d62 a1bc
000001a0: 50bf d9bd 3d37 0f3e 118e 8bbd c23f 1abe
000001b0: ba8d 053e cd05 633d 50c0 eb3d ae64 7dba
000001c0: 0f6c 79be b1f8 9e3c 1465 5e3d 06c2 1cbe
000001d0: ca7f a4bd e43a 913c 3538 393e aac4 65be
000001e0: 9df7 6d3e c592 543e 3c85 533e a6c6 823e
000001f0: ceab efbd 74f7 2dbe 46f0 153b 5ac8 823e
00000200: c4e7 1dbe 31c7 b73e 3d57 23be 93c5 8cbd
00000210: d2be 30be 2f25 513e 795d 863e cd7d 6d3e
00000220: cb34 0c3e 7035 2ebe 222f cc3e 035f fd3d
00000230: 4538 12bb 23e7 cd3c f63c a8bd 0796 773e
00000240: 9fa9 8d3e 7b9f 44be 6344 f93d 290d 4b3e
00000250: fa05 37be 1791 633e 70e4 733d a658 603e
00000260: 7edd 5dbe 19fb 233e 3c14 9cbb 7c62 adbc
00000270: f50b 773e d7a0 dc3d 330b 363e 56a0 13be
00000280: 6536 823e 5b9b bebd 07e7 893e 072a 013e
00000290: 42ca 783e 0e32 733e 9997 f73c d6c7 1dbc
000002a0: 773a 463e 407a 99bd 9524 86be c631 153d
000002b0: 5c73 433d 1357 a3bc c7b2 733e a692 e43d
000002c0: 0060 35be 2f3a 463d c08b f7bc 7a07 e53d
000002d0: 499f c3bd 5355 e5bd f852 123e 4460 7fbe
000002e0: e50c 5b3e 3d84 ea3d 7e2d 833b 67f1 803d
000002f0: c44a 39be 052b abbd bffa 2cbe 3a66 33bd
00000300: 841d 06be 905e 4f3e dd62 67be 1526 34bd
00000310: 2994 21be e479 eebb db08 c53c 466a a13e
00000320: 4bc4 603d 1dea 173e 7b2d 5c3e 0d2d 3c3e
00000330: 81b4 0bbc 6e60 d9bd 6a17 94bd bf68 2e3e
00000340: bfe6 d93d d348 85be 2513 153e 3aa0 ad3e
00000350: c622 e7bd 7299 743e 9ac7 04be 246e 933e
00000360: 6598 c0bd e0ea 6a3e d7ed 093d babb 6f3d
00000370: bf60 243e b702 b83e 940e cd3e df4a f4bc
00000380: 97c6 423c 4c70 4dbb 63ce 83bd 8297 2f3e
00000390: e517 aebc 93e4 cabc 1749 e6bc dc29 ec3c
000003a0: 1e07 a5b9 7d28 d23b 413f 44bd 85d2 80bd
000003b0: c8f9 583e e0b7 1b3d 5e02 863e 4684 64be
000003c0: 2b75 2bbd a30e 323e 10f2 0e3e 6c87 4a3d
000003d0: cc0e 483e 86e1 55be cdcb 5b3e bdc4 01bd
000003e0: b60b 8b3e 684d 463e 3410 1d3e bd5e 3c3e
000003f0: 81bf a1be 0635 dbbd fd7c d63c bf0b 433e
0.011840288 -0.17100507 -0.04287602 0.09462003 0.0017121676 -0.007992067 -0.07644868 -0.042931303
0.09174292 0.025706192 -0.13106726 -0.03292575 -0.0036854937 0.14883104 0.05818479 -0.17187601
-0.14363512 0.091206156 -0.13098489 0.12535451 -0.012779999 -0.08363754 -0.16077611 -0.0148145845
-0.01787414 -0.091920346 0.025357954 -0.12292859 0.15459166 -0.13622515 0.01987546 -0.16088289
0.103030875 0.0011303526 0.14224684 0.066740036 -0.016590135 0.09833473 0.17639376 0.026357032
0.011996993 -0.15231474 0.09770651 -0.061218612 -0.06619205 0.009980316 -0.06708407 -0.02073882
0.14575581 0.10146496 -0.16789839 -0.058645256 0.16627121 -0.0376963 0.039678916 -0.13084693
-0.10990204 -0.12350417 -0.11351522 -0.17401238 0.031366423 -0.04853159 -0.14268178 0.16421282
0.048490774 0.2648766 -0.061420493 -0.104587466 -0.14033015 0.20276675 0.20698601 0.32144022
0.2527642 -0.16257714 0.2591355 0.34041977 -0.1304093 -0.2312292 0.04376667 0.039486233
0.35574567 -0.18455926 0.28266385 0.28466105 0.048598453 0.22024469 0.012322562 0.3162729
-0.21843928 0.26970136 0.22471914 -0.24468839 0.35404977 0.33067232 0.27274615 -0.18430784
0.1967952 -0.10364855 0.22068936 0.07120313 -0.04604453 0.08921188 -0.03793737 -0.019700134
-0.10632193 0.13985915 -0.068142064 -0.15063384 0.13042346 0.055425454 0.1151129 -0.00096661865
-0.24357627 0.019405695 0.054295614 -0.15308389 -0.08032186 0.017728277 0.18087848 -0.22438303
0.23238988 0.20759113 0.20656294 0.25542182 -0.11702691 -0.16988927 0.002287881 0.2554348
-0.15420443 0.35894158 -0.15951248 -0.06873622 -0.17260292 0.2042434 0.2624319 0.2319252
0.13692014 -0.17012572 0.3987971 0.12371638 -0.0022311371 0.025134629 -0.082147524 0.24178325
0.27668473 -0.19201462 0.12171247 0.19829239 -0.17873374 0.22223316 0.059544027 0.21908817
-0.21666524 0.16013755 -0.0047631543 -0.021165125 0.24125655 0.10772865 0.1777771 -0.14416632
0.25432125 -0.093069755 0.26934072 0.12613688 0.24295905 0.23749563 0.030223655 -0.009630164
0.1935824 -0.074940205 -0.26199785 0.03642442 0.047717437 -0.019938981 0.23798667 0.111607835
-0.17712402 0.048395332 -0.030218005 0.11183067 -0.095518656 -0.11197915 0.14289463 -0.24939066
0.21391638 0.11451004 0.004003226 0.06296044 -0.18094927 -0.08357815 -0.16892527 -0.043798663
-0.13097197 0.20250916 -0.22596307 -0.04398163 -0.15779175 -0.007277714 0.024052074 0.31526393
0.0548747 0.14835401 0.21501724 0.1837656 -0.008526922 -0.10614096 -0.072310284 0.17032145
0.106397144 -0.26032123 0.14558084 0.33911306 -0.112859294 0.2388666 -0.12966767 0.28794968
-0.09404067 0.2294116 0.033674087 0.05852864 0.1605253 0.3593957 0.40050185 -0.029820858
0.011888168 -0.0031347452 -0.064358495 0.1714764 -0.021251628 -0.024767196 -0.028111024 0.028828554
-0.00031476555 0.006413518 -0.047911886 -0.062901534 0.21189034 0.038017154 0.2617368 -0.22316083
-0.041859787 0.17388396 0.13959527 0.049445555 0.19536895 -0.20886812 0.21464463 -0.031681765
0.27157372 0.19365466 0.15338212 0.18395515 -0.31591418 -0.10703473 0.026182646 0.1904745

linear2.bias f4 [16]
00000000: 0b93 17be 12ab 2cbe 7116 783e a3ed 4bbe
00000010: 3fb7 943e c68f 80be b713 433e 0b53 51be
00000020: 00b4 89be 8184 8f3e 3377 95bd 2acb a73e
00000030: 64d6 07be 4a82 923e fec6 22be d893 e7bd
-0.14802186 -0.16862133 0.2422731 -0.1991487 0.29046056 -0.2510969 0.1905049 -0.20441835
-0.26895142 0.2803078 -0.07298126 0.3277219 -0.13265377 0.28615028 -0.15896222 -0.11307496

linear3.weight f4 [1, 16]
00000000: 99e2 ef3b ff32 013e 54aa e9be ef47 8f3e
00000010: 08f2 86be 897b 273e 096b f1be 127f 9e3e
00000020: c645 a53e 88c8 98be a6c3 2c3e d28b cbbe
00000030: 5344 853e 083d 8abe 79f2 fe3d ce1c 13be
0.0073207137 0.1261711 -0.45637763 0.27984568 -0.2635653 0.16355719 -0.47151974 0.30956322
0.32279795 -0.29840493 0.16871509 -0.39755112 0.2602869 -0.26999688 0.12448592 -0.14366457
